Simulation Platform/model.pt (torch, 443839 bytes, 10 tensors)

weight f4 [10, 3, 5, 5]
000000 8b 81 bd 3d 6b 3d 8f bd e7 36 a5 bd 88 55 35 3d
       0.09253224 -0.069941364 -0.080671124 0.044271022
000010 eb 1d 9a 3c ff 8e 82 bd 57 80 58 3c 63 59 0c 3e
       0.018813094 -0.063749306 0.013214192 0.13705973
000020 1c ad df bc 27 35 c6 3d 2a a9 82 3d 50 4c fc 3d
       -0.027304225 0.09678107 0.06379922 0.12319243
000030 68 19 1b bd 18 78 72 bc 7d 34 45 3d 15 a7 8b bd
       -0.037866026 -0.01479914 0.04814576 -0.06818978
000040 17 1b a2 bd 59 6e ab 3d 88 93 52 3d 93 21 bb 3d
       -0.07915323 0.083706565 0.051410228 0.09137263
000050 5b e1 2d 3d 2c 58 de bd d3 10 0d 3b 34 3e 37 bd
       0.042451244 -0.10856661 0.002152492 -0.044737056
000060 1b d3 72 3d 23 e0 f9 3d 78 f8 dd 3d 91 22 d1 3d
       0.059283357 0.12200954 0.10838407 0.10211671
000070 b9 56 2e 3c f6 40 01 bd fb 17 f0 3d 66 c4 65 bd
       0.0106407935 -0.031556092 0.11723324 -0.056095503
000080 b3 1f ae bd 4a ec 40 3d 92 c6 28 3e 36 7f b8 bd
       -0.0850214 0.047100343 0.16481999 -0.090086386
000090 c4 ab e8 bd ae 2d 9e 3d b6 0c ae bc 24 3a 78 bd
       -0.11360887 0.077235565 -0.021246295 -0.060602322
0000a0 5f 40 36 bd a8 22 81 bd d3 74 b6 bb 34 9e 0e be
       -0.044494983 -0.06305438 -0.0055681258 -0.13927537
0000b0 12 ee 09 3d b3 c2 39 be 78 5c ea bd 36 19 a2 bd
       0.033674307 -0.18140678 -0.11443418 -0.07914965
0000c0 08 00 3d be a7 e9 14 be 94 26 5d 3c 4c 61 53 bc
       -0.18457043 -0.14542256 0.013497967 -0.012901615
0000d0 bc 6e 31 3e 3c 00 ff 3d 1d 9e d3 3d e0 22 09 3e
       0.17327398 0.124512166 0.10332892 0.1339221
0000e0 c3 e3 09 bc fb 1a 08 3d ff ec 32 3c fd 67 e7 3d
       -0.008416119 0.033228856 0.010920762 0.11299131
0000f0 d5 30 2c bd 29 ab f7 3d 94 5e 80 bd c6 af a6 bd
       -0.042038757 0.12093193 -0.06268039 -0.08138995
000100 0b 33 45 bd 41 3a 2d bd f6 0f 7a 3b 4f f8 7b 3d
       -0.04814438 -0.042291883 0.0038156486 0.061516102
000110 c8 69 e9 bd 86 11 cd bd 88 5f 11 bd d0 48 4b bd
       -0.11397129 -0.10013108 -0.035491496 -0.049629986
000120 c5 40 d5 bd 5b 1e 02 be fb 40 4e 3a 6b 50 24 3d
       -0.104127444 -0.12706892 0.0007867959 0.040115755
000130 60 bf ba bd 52 da d2 bd 26 9f b2 bc a1 04 be bd
       -0.09118533 -0.102955475 -0.021804404 -0.09278227
000140 af 46 d5 bd 01 44 13 be c5 54 1a be fb b9 6a 3b
       -0.104138725 -0.1438141 -0.150714 0.003581642
000150 56 cf 20 be 3c b6 1e be 89 d2 16 be 88 92 84 3d
       -0.15704092 -0.15499204 -0.1472875 0.06473261
000160 f9 74 23 be dc 21 16 bc 4a 70 46 3d eb 04 68 bd
       -0.1596259 -0.009163346 0.04844693 -0.056645315
000170 56 95 a8 bd b0 c9 69 bd 6b 2d 9a 3d 10 56 f4 bd
       -0.082316086 -0.05707711 0.07528194 -0.119304776
000180 f9 66 4d bd 0c 7a fc bd 2e 53 77 3d 94 f9 bf 3d
       -0.05014703 -0.12327966 0.06038206 0.09373775
000190 66 49 8f bd 0e 26 7c bd 0d 86 af bd d4 04 aa bd
       -0.069964215 -0.06155973 -0.0857049 -0.08301702
0001a0 38 30 98 b9 20 19 fa bd 6e 7d 6e 3d 0c 43 09 bd
       -0.00029027625 -0.122118235 0.058225088 -0.033511207
0001b0 b6 f9 a1 3c 97 f1 b0 bd fe eb 85 bd 79 78 bd bd
       0.019772392 -0.086398296 -0.065391526 -0.09251494
0001c0 aa 5e 99 bd d8 d3 36 bd c7 1a c2 3c 07 a0 cd bd
       -0.07488759 -0.044635624 0.023694409 -0.100402884
0001d0 0e b3 c0 bd 60 f5 93 3d 17 c1 c3 bb f6 b6 73 bd
       -0.09409152 0.07224536 -0.005973946 -0.059500657
0001e0 a3 d3 c6 3d f6 a2 cf bd 79 07 95 3d c9 b1 be bd
       0.09708335 -0.10138504 0.07276816 -0.093112536
0001f0 40 9c ab bd e4 a3 a5 bc ea 88 03 3e 08 39 1a 3e
       -0.08379412 -0.02021975 0.12845197 0.15060818
000200 44 74 ee 3c 48 41 ed 3c 0a 05 f1 3c 5c 99 c2 3d
       0.029108174 0.028961793 0.029421348 0.09501907
000210 54 01 3a 3d 29 e4 28 bd d2 6c 30 3d e4 a2 68 bd
       0.045411423 -0.041233215 0.04307253 -0.05679597
000220 03 ac 24 3e 2f ce 23 bd 90 84 ba 3d b5 8d bc 3d
       0.16081242 -0.039991554 0.091073155 0.09206716
000230 f9 5e 0e 3d fd 47 d5 3b ed 5a ce 3d 64 af eb 3c
       0.03475854 0.006508826 0.100759365 0.028770156
000240 d4 24 f9 3c 02 16 ac 3c 61 09 fc 3d 54 3e 6a 3d
       0.030413069 0.021006588 0.123064764 0.057188347
000250 39 ef 01 3e 4b 15 3e bd d8 ba 24 bb 74 cc f5 bc
       0.12688912 -0.046407025 -0.0025135782 -0.030004717
000260 1b c2 cb bc d6 bd b8 3d 5a d5 e0 bc e9 51 c0 3d
       -0.02487283 0.09020583 -0.027445484 0.09390623
000270 1d 1a 8b 3d 12 32 7a bd f8 c8 c1 3d be 81 04 3d
       0.0679209 -0.061082907 0.0946216 0.032350294
000280 b6 f7 d3 3d 96 4b ee 3d a8 66 c8 3d d2 91 1f bc
       0.103499815 0.116355106 0.09785205 -0.009739356
000290 85 ed b7 bc eb 9b e7 3d 09 5f a7 3c b9 cc bf bc
       -0.022452125 0.11309036 0.020431058 -0.023413049
0002a0 e5 68 04 3e 06 4d cb 3b 5b b6 35 3d 1d e7 89 3d
       0.12930639 0.0062042503 0.04436336 0.067335345
0002b0 10 46 f4 3d 7a cf 9e 3d 63 36 75 bd b5 99 3b 3d
       0.11927426 0.07754417 -0.05986632 0.045800883
0002c0 d8 5c dc bd fd 81 7d 3d ec 5c 00 be ae 05 1f be
       -0.10759896 0.061891545 -0.12535447 -0.1552951
0002d0 63 c4 d9 bd 5d 2e 95 bd 85 d4 c8 bd 4b 76 0d be
       -0.10633161 -0.07284234 -0.0980616 -0.13814656
0002e0 b0 a1 df 3b 09 e2 8d 3d 3a b7 6e bd c9 8d b2 bd
       0.0068246946 0.069278784 -0.058280207 -0.087184496
0002f0 56 a3 df bc ea 16 66 bc e6 58 e1 bd 0e d1 d1 bc
       -0.027299564 -0.014043549 -0.11003284 -0.02561238
000300 b0 5c d8 bd 33 5c b5 bd d8 3e e7 bd d7 41 60 bd
       -0.10564554 -0.08855476 -0.11291283 -0.05475029
000310 c0 31 13 be 7c 5c b1 3c 59 7b 8b bd a7 7b 05 be
       -0.14374447 0.021650545 -0.06810636 -0.13035451
000320 ef a8 ae 3d b8 24 5f bd cd 9f a8 bd 82 18 57 3d
       0.08528315 -0.054478377 -0.082336046 0.052513607
000330 e6 9d 00 3c 0f ed 85 3d 80 94 f7 3c f2 8e a4 3d
       0.007850146 0.06539356 0.030222178 0.08035077
000340 e6 63 b7 bd 1c a6 8d 3c 7c 30 fb 3c 4e 7d ca 3c
       -0.08954601 0.017291121 0.030662768 0.024717953
000350 da c5 69 3b 15 e1 c2 3d 25 ec af bd 70 f3 00 3e
       0.0035670907 0.09515587 -0.08589963 0.12592864
000360 5f a3 d6 3d d2 c6 30 bd 71 e7 42 3d 48 21 ab 3c
       0.10480379 -0.04315836 0.047584 0.020889893
000370 99 eb 90 3d 3b e0 ef bc e0 28 fa bc 66 65 ee bd
       0.07076187 -0.029281726 -0.030537069 -0.11640434
000380 cc 19 f1 bb b5 fa 09 be b5 40 68 3d 61 d1 4f bd
       -0.0073578116 -0.13474543 0.056702334 -0.05073679
000390 15 99 a9 bb 05 59 5c bd 3e 43 8f 3d 19 98 d1 bd
       -0.0051757195 -0.053795833 0.06995247 -0.102340885
0003a0 e7 8b df bd c6 67 f2 3c 2c 5e f9 bd 6c a1 4c bd
       -0.10915356 0.029590499 -0.12176165 -0.04995863
0003b0 6c 9f e8 bd b8 e5 cd bd 5a 1b 04 3d dd 97 8e bd
       -0.11358532 -0.10053581 0.032252647 -0.06962559
0003c0 f4 57 9d bd e4 45 a2 bb 6e d6 7b bc 3f f7 f5 bd
       -0.07682791 -0.0049521793 -0.015370948 -0.12010049
0003d0 2f e1 2a 3c fe db 14 be 7a 6c 21 be 5b fe 12 bc
       0.0104296645 -0.14537045 -0.15764037 -0.008971776
0003e0 59 a1 d4 bc 14 7c 26 bd 4e 6d 04 bd 24 78 5d bc
       -0.025955843 -0.040645674 -0.032330804 -0.013517413
0003f0 02 87 b5 bb 00 89 9e bc 29 66 f6 3c f9 31 2f bd
       -0.005539776 -0.019352436 0.03007801 -0.042772267

bias f4 [10]
000000 53 60 f2 bc 52 f9 12 3d b6 a3 21 bb 20 18 7a 3c
       -0.029586947 0.0358823 -0.002466423 0.015264541
000010 a8 b3 46 3d 74 7e a1 3d 9f 49 81 3c 37 31 39 3d
       0.048511177 0.07885447 0.015782176 0.04521295
000020 41 46 dc bc 6a 0a b7 3c
       -0.026888968 0.022343833

weight f4 [30, 10, 5, 5]
000000 13 b6 7a 3d 76 2b 89 3c 99 19 3e 3d 56 47 38 3d
       0.061208796 0.016744357 0.04641113 0.044989906
000010 d5 81 93 3d c2 ab 5b 3d 1f d3 54 3d 62 28 3c 3d
       0.07202498 0.053630598 0.051959153 0.04593695
000020 6a 01 5c 3d dc f3 4d 3d fa 96 9c bc 88 36 89 bd
       0.053712286 0.05028139 -0.01911496 -0.06699854
000030 7c 46 36 bc 2c 5a 18 3d 18 58 32 bd 1f 21 41 bd
       -0.011125203 0.03719537 -0.043541044 -0.047150727
000040 cd a3 2f bd 2b fa 29 bd 67 0c f8 3a 96 5d 8c bd
       -0.042880822 -0.041498344 0.0018924595 -0.068537876
000050 09 33 d4 bb 46 0f 9f bc 81 32 e5 3c 88 2f 50 bd
       -0.0064758104 -0.019416463 0.027978184 -0.05082658
000060 ed 3d 27 bd d9 2e 06 bc dc 0f 84 bd 2f d2 90 bd
       -0.04083054 -0.00818988 -0.064483374 -0.07071339
000070 2b a4 97 bd 61 97 1c bd 5a e6 50 3c 52 bc 0a 3d
       -0.074043594 -0.038230304 0.012750233 0.033871002
000080 76 e9 34 3d 4d 13 41 bd e4 54 4c bb 36 5b 4f 3d
       0.04416796 -0.047137547 -0.0031178528 0.050624095
000090 4d e1 db bc 9d 2b 8e bd 9c 96 49 bd 1a fc 5c bd
       -0.02684083 -0.06941912 -0.049215898 -0.05395136
0000a0 0a ff 8c 3c 0b 04 93 bd dd bd 9d bc 6c 15 86 3b
       0.017211456 -0.071785055 -0.019255573 0.004091909
0000b0 67 79 b3 bc 06 6b d3 3c 72 0d 5a bd 68 a0 91 bc
       -0.021908475 0.025807869 -0.05323548 -0.017776683
0000c0 99 a6 97 bb ba 91 af bd 79 a7 a6 b9 33 79 a8 3d
       -0.0046280143 -0.08572717 -0.00031786764 0.08226242
0000d0 50 60 0f bd 00 2f d7 3c c2 4a 56 3c 47 9e af bb
       -0.03500396 0.026267529 0.013079347 -0.0053594443
0000e0 b4 ad 49 bc f3 da 8b 3c 32 ac 4b 3d 23 00 0d 3d
       -0.01230948 0.017072177 0.049724765 0.03442396
0000f0 cc e1 5f 3d a8 58 2a 39 c7 7a e9 3c 19 b2 00 3d
       0.054658696 0.0001624549 0.028500928 0.031419847
000100 71 c2 bd 3c 6c 58 a4 bc db ed 66 3d 05 47 e9 bc
       0.023164006 -0.020061694 0.05637918 -0.028476248
000110 17 d0 7d 3b a1 f1 1e 3c e3 9a 99 bb b7 35 8b 3d
       0.0038728768 0.0097011635 -0.0046876534 0.06797355
000120 0c 5d 6b bc 36 13 3c 3c ff cb 40 bd 7c c6 3c bd
       -0.014365446 0.01147919 -0.047069546 -0.046087727
000130 f9 32 fd 3c 59 54 7b bd fd 90 69 bc 92 ef 8e bd
       0.030908095 -0.061359737 -0.014255759 -0.06979288
000140 70 2b 09 bd 3c f3 59 bd f1 09 d7 3b cb 01 ab 3b
       -0.03348869 -0.053210482 0.0065624644 0.0052187196
000150 11 fd 73 bd 19 6e 06 3d dd 1c 18 bd ae fa 54 bc
       -0.059567515 0.03281984 -0.0371369 -0.01299922
000160 c5 3e c8 bb 95 4f e3 bc 81 ea ea bb 15 35 d4 3c
       -0.0061109983 -0.027747909 -0.0071690683 0.025904218
000170 b7 4b 32 3c 15 b1 0e 3c e5 0e d6 bb 85 12 9e bd
       0.01088231 0.008709212 -0.0065325373 -0.07718376
000180 47 27 90 bd ed bd 87 bd 27 cb 89 bc 29 f1 16 bc
       -0.070387416 -0.06628022 -0.016820503 -0.0092127705
000190 19 f7 d0 3c d4 b4 66 3d 1b b4 b9 3b 7b 1e 74 3d
       0.02550845 0.056324795 0.005667222 0.05959938
0001a0 76 61 d5 3b 36 bc 8c 3c 6d 05 cc bc ba 13 34 bd
       0.0065118624 0.01717959 -0.024904931 -0.043964125
0001b0 5f bc 96 ba e5 aa a3 bd de c6 2d bd a4 0a 11 3d
       -0.0011500231 -0.0799158 -0.042425983 0.03541054
0001c0 fa 39 29 bd 02 89 77 3c 67 6b 62 bd 51 32 cd 3c
       -0.041315056 0.015108349 -0.055278208 0.025048407
0001d0 16 d2 2b 3d 49 a2 2d bb 9b 4d 63 bd 72 43 f4 3b
       0.0419484 -0.0026494435 -0.055493932 0.007454329
0001e0 df ad 87 bd a5 8e ae 3a a6 58 0f bd bc 20 fa bc
       -0.0662496 0.0013317658 -0.03499665 -0.030533187
0001f0 60 4b 10 3d 80 67 ab 3c 2a ce 14 bd a8 d3 c5 bc
       0.035228133 0.020923376 -0.036329426 -0.024148777
000200 f7 d0 26 bd 93 e3 8b bd 59 e2 fb 3c cd d0 28 bc
       -0.04072663 -0.06830516 0.03074758 -0.010303688
000210 f4 df b7 bd ea 6e b6 bd 68 6d 8f bc 2e af 96 bc
       -0.089782625 -0.08907874 -0.017508224 -0.018394079
000220 b3 49 66 bd bd 18 0c 3a 61 91 d0 bc af 45 b1 bc
       -0.05622263 0.00053442625 -0.025459947 -0.021639673
000230 b2 a3 47 bd 80 6f 38 bd 09 cd a7 3c 91 bc 9a ba
       -0.048740096 -0.04502821 0.02048351 -0.0011805465
000240 3c a6 96 bd 78 db 14 bd 00 34 61 bd e4 ff 8e bd
       -0.073559254 -0.036342114 -0.05498123 -0.06982401
000250 36 0e c3 bc 1d a3 74 bd 1a f4 83 3c 31 74 7e bd
       -0.023810487 -0.05972587 0.016107608 -0.062122528
000260 4a 57 ca bc 70 0e 3f bd 68 2f ae bc 99 45 aa 39
       -0.024699826 -0.046644628 -0.02126284 0.0003247678
000270 76 ff 35 bc 7f d7 86 bd 4b 9c 85 bd a1 bf 00 bd
       -0.01110827 -0.06584071 -0.06523951 -0.03143275
000280 a8 82 17 bc ec c3 cd bb 80 60 f9 bd 8d da 99 bd
       -0.0092474595 -0.006279459 -0.12176609 -0.075123884
000290 8e 28 9c bd 7b 06 02 bc a4 ea b5 bd 11 66 3b 3c
       -0.07624923 -0.007936115 -0.08882645 0.011437909
0002a0 f3 85 44 3c 9a 70 5e bd fc 0c 39 bd 3c 43 72 bd
       0.011994827 -0.054306604 -0.0451784 -0.05914615
0002b0 4b 9f 8b bd 54 15 ce bd 12 2c 25 bb f0 59 f0 bc
       -0.06817492 -0.10062662 -0.002520327 -0.02933976
0002c0 22 51 2c 3d 22 d3 ea 3d b8 9d 69 3d fa 9e 05 3d
       0.04206956 0.11466052 0.057035178 0.032622315
0002d0 21 a8 ac 3c 76 c4 dc 3d 77 bd 2a 3d 60 6d 8c 3d
       0.021076264 0.107796595 0.041684594 0.06856799
0002e0 60 fa e6 3d dc 5c a6 3d 6e 9a e7 3c 9c 0a d0 3d
       0.11278224 0.0812318 0.02827188 0.101582736
0002f0 ad 87 cc 3d 26 51 c0 3d 39 94 a3 3d c3 24 73 3d
       0.099868156 0.09390478 0.079872556 0.05936123
000300 e7 67 ab 3d 62 f0 2a 3d 23 18 59 3d 0b a7 4e 3d
       0.08369427 0.041733153 0.053001534 0.050452273
000310 c9 e6 2e 3b 69 82 c3 3d 20 51 b0 3c 71 f0 b4 3d
       0.0026687852 0.09546358 0.021523058 0.08834923
000320 78 03 fb 3c 35 da 77 3d da 4a 07 3d 9d 30 f0 3b
       0.030641302 0.060510833 0.03303037 0.007330014
000330 e8 6e a9 3c b0 31 95 bd 59 c3 f8 bc ab 54 0d be
       0.020682767 -0.07284868 -0.030366587 -0.1380183
000340 41 4a 19 be 30 3d fa bd 52 90 e8 bc ff d0 e0 bc
       -0.14969732 -0.12218702 -0.02838913 -0.027443407
000350 9d b1 fb bd 88 4a e2 bd eb 8c e0 bd a1 96 d5 3d
       -0.122897364 -0.11049372 -0.10964378 0.10429121
000360 d9 41 ca bc 76 0b 13 3c fa fe 65 bc b7 d3 bb bd
       -0.024689602 0.0089749005 -0.014037842 -0.09171241
000370 c2 83 57 3b 55 96 9a bc dc e4 b3 bc 93 49 ff bd
       0.003288493 -0.018870512 -0.021959715 -0.12465205
000380 6e f5 e4 bd b1 b3 b8 3d 37 e4 a9 3d 2c 81 ef 3d
       -0.111796245 0.090186484 0.08295482 0.116945595
000390 23 3d a9 3d ea 82 db 3d 71 70 b6 3d 79 a2 6e 3d
       0.08263614 0.10718329 0.08908165 0.058260415
0003a0 b6 88 9e 3d 33 52 6e 3d 79 94 6a 3c 31 25 36 bd
       0.07740919 0.05818386 0.014317625 -0.044469062
0003b0 85 7f 80 bd 3d 2d b3 bd 79 4b 27 bd 6b a4 41 bd
       -0.062743224 -0.08748863 -0.04084346 -0.04727594
0003c0 dd 46 09 bd 11 af 3b bd 9d a8 0c bd 6b fc ae bc
       -0.033514846 -0.045821253 -0.03434049 -0.021360597
0003d0 6b 91 74 bd 2d d9 24 ba a2 72 63 bd 99 47 01 bc
       -0.059708994 -0.0006288465 -0.055529244 -0.007890605
0003e0 3d f5 9d 3c 4b 26 7f bd 7d 3c 0e 3e 85 36 8c 3d
       0.019281978 -0.06229238 0.13890262 0.06846336
0003f0 9d c1 6c 3d 6e 9b a6 3c 1a 8d b6 b9 23 6a a8 3d
       0.05780183 0.020337787 -0.00034818874 0.08223369

bias f4 [30]
000000 5d 59 49 3d e8 f7 b9 bd e6 26 4c bd 18 cd 91 bc
       0.04915749 -0.090804875 -0.049841784 -0.017797992
000010 df db ed bc 24 8c 4e 3d 4c aa b6 bd 95 5b bc 3b
       -0.029035507 0.050426617 -0.089192 0.005748222
000020 53 73 d6 bd 3b 49 6f 3a 98 63 51 3d e6 4a d9 bc
       -0.10471215 0.00091280387 0.05112037 -0.026524972
000030 6d 69 f0 3d 03 87 86 3c cf 42 db bc 97 22 5b 3c
       0.11738858 0.0164218 -0.026765255 0.013374946
000040 1b 47 83 bd 00 1e 7a bd fc 0c f5 3d 96 e2 c9 bc
       -0.06410047 -0.061063766 0.11965367 -0.024644177
000050 0e 7b 40 bd 0c eb b4 ba 80 e9 3f 3d 2f da 78 bd
       -0.046992354 -0.001380296 0.046853542 -0.06075495
000060 89 ad 8a 3d e1 99 ba 3d 5d ba 7e 3d dd 14 3f 3d
       0.067713805 0.09111381 0.06218945 0.046650756
000070 90 f2 7c 3d 54 d2 40 bd
       0.061754763 -0.047075585

weight f4 [120, 30, 5, 5]
000000 80 b4 2b 3a 45 b8 03 3d 84 15 e9 bc 49 06 ed bc
       0.0006550029 0.032158155 -0.028452642 -0.028933661
000010 1e 06 fc 3c 2a f5 bd 3c 10 22 b3 bc dc 18 f3 bb
       0.030764636 0.023188192 -0.021866828 -0.007418735
000020 d0 fe 04 3b 30 bb 3d bb 60 45 9c bb 94 b3 0b 3c
       0.0020293482 -0.0028950684 -0.0047690123 0.0085267015
000030 17 63 8e bc f4 62 40 bc 60 30 a3 bb 1d 35 00 3d
       -0.017381234 -0.011742342 -0.004980132 0.031300653
000040 57 cf 06 bd 40 4a 08 3a fc 4a a5 3c 0e 0f a4 3c
       -0.03291258 0.00051990524 0.020177357 0.02002671
000050 9e e3 ae 3c 94 c4 46 bc 6e 15 0e bc 84 20 d8 bc
       0.02134877 -0.012131829 -0.008672101 -0.026382692
000060 80 7b 14 bd e8 9e 0f bd cf 98 5b 3c ae 63 26 bc
       -0.03625059 -0.035063654 0.013403132 -0.010155601
000070 8c f1 d6 3b 43 f9 46 3c c6 fd 27 bd 3d 24 12 bd
       0.0065595564 0.01214439 -0.0410135 -0.03567909
000080 43 2e 8a 3c 2b 77 5a 3b 1f eb 06 bd 21 c2 b4 bc
       0.016867762 0.003333519 -0.032939073 -0.022065224
000090 fb a8 70 3a f1 ee a0 bc 57 06 3c bd 20 88 7f 3c
       0.00091804535 -0.019645186 -0.045904484 0.01559642
0000a0 ff 4c cb bb f7 9e 38 bc ae d9 22 bd d1 69 36 bd
       -0.006204247 -0.011268369 -0.039758377 -0.04453451
0000b0 5b ed 07 bd e6 c1 0d bd d2 f8 3b bd c2 bd bf bb
       -0.033185344 -0.034608744 -0.04589159 -0.0058514783
0000c0 06 90 56 bc 84 f7 a8 bb 8e 52 cd 3c f1 b2 a4 bc
       -0.013095861 -0.0051564593 0.02506378 -0.020104857
0000d0 5c 15 4c 3c 92 01 22 bc 0e 2a 4c 3c a8 cf 0b 3c
       0.012456264 -0.00988807 0.0124611985 0.008533396
0000e0 a7 8a 85 bc 49 78 5b ba fa 8d 68 ba 2d 04 9c bc
       -0.016301466 -0.0008372111 -0.0008871254 -0.01904496
0000f0 b2 78 de 3c 88 8e 37 3c 72 23 cc bb d0 bf 15 bd
       0.027157161 0.011203416 -0.0062298113 -0.03655988
000100 f7 6f e9 bb 28 c6 6f 3c 40 68 78 3a 79 f5 44 3c
       -0.007123943 0.0146346465 0.00094759837 0.012021416
000110 67 b4 9a 3a 76 59 f7 b9 74 ff 38 bc b8 9c a0 bc
       0.0011803032 -0.00047178165 -0.0112913735 -0.01960598
000120 1f 92 03 3d 90 61 b3 3c be 71 0e bc 5a 4a 58 bc
       0.032121774 0.021897107 -0.00869411 -0.013201321
000130 20 62 bf 3a 80 e2 fd ba a6 8a 98 bc c6 07 b0 bc
       0.0014601387 -0.001936987 -0.0186208 -0.021488082
000140 70 ef 1e 3c 4a 59 c5 bc e6 41 08 bd 11 37 00 bd
       0.009700641 -0.024090428 -0.03326597 -0.031302515
000150 8b a0 cf bb ee 93 8e 3c ed d8 8b bc cc d6 b0 3c
       -0.006336277 0.017404523 -0.017071212 0.021586798
000160 63 34 f5 bb 0a 43 f5 3c 6b 49 05 bd 6d fc 0f bd
       -0.0074830516 0.029939193 -0.03254072 -0.03515284
000170 58 e4 d3 3c 04 69 25 bc 22 da 98 3c e7 50 8f bc
       0.025865719 -0.010095838 0.018658701 -0.017494632
000180 16 67 ca 3c 42 9a 61 bc 92 d9 97 3c ff 14 f6 bc
       0.024707358 -0.013769688 0.018536363 -0.030039309
000190 2f c9 80 bc 27 7e 06 3d db 17 14 bd 49 7c 10 bd
       -0.015720932 0.032835152 -0.036155563 -0.035274778
0001a0 65 80 0c bd b2 90 11 bd 5b 7e ab bc c2 b2 8f 3c
       -0.034302134 -0.035538383 -0.020934274 0.017541293
0001b0 28 63 8f 3b 73 e6 06 3d e1 2a f0 bc 48 42 cc bc
       0.004375834 0.032934617 -0.029317321 -0.02493395
0001c0 4e 03 96 3c c0 bc 1c 3a ec d1 75 3c e1 06 ab bc
       0.018312123 0.00059790537 0.015003663 -0.020877304
0001d0 e8 fa 85 3c 69 10 a0 bc f9 e2 ad bc 92 56 ea 3c
       0.016354993 -0.019539075 -0.021226393 0.028605733
0001e0 11 3e 13 bd f6 d9 ba bc 18 89 9d 3c 28 dc 06 3c
       -0.035947863 -0.02280901 0.01923041 0.0082312
0001f0 b8 16 b3 3b f3 58 86 bc 02 76 d5 3c 50 a1 ba 3c
       0.005465355 -0.016399836 0.026057247 0.022781998
000200 64 77 0f bc e8 7c 87 bb c2 f5 ab bc d3 79 b6 bc
       -0.008756492 -0.004134763 -0.02099121 -0.022274887
000210 17 27 15 3d ac f5 cd 3c 92 6d c6 3c be fa 97 bc
       0.036414232 0.02514156 0.02422217 -0.01855218
000220 b4 4e a5 3c 1e 91 ad bc 82 ce 0b bc 04 13 5d 3c
       0.02017913 -0.021187361 -0.008533122 0.013493303
000230 44 ea 2d 3c 9b 8c 03 3d 62 dd 1d bc 02 60 96 3c
       0.010614935 0.032116514 -0.009635301 0.018356327
000240 a0 8a 26 bb 1a bb 83 3c cc 42 9a 3c ee 61 d8 3c
       -0.0025412217 0.016080428 0.01883068 0.026413884
000250 9e 3c d6 3c c6 a0 13 bd 63 17 b0 bc 3e 6f 87 bc
       0.026151951 -0.036041997 -0.021495527 -0.016532537
000260 b7 d8 8d bb da a5 bf 3c 22 0c 85 bc bf 0d 82 bc
       -0.004328813 0.023394514 -0.016241137 -0.015875695
000270 db a6 19 bd 7b 34 ce bc 37 7b b0 bc 65 90 3d bd
       -0.03751264 -0.025171509 -0.021543128 -0.046280283
000280 f1 e4 11 bd 19 90 32 3b 9a df 22 bd 1d ff bd bc
       -0.035618726 0.0027246533 -0.039764024 -0.023192937
000290 15 c7 ac bc 91 d0 36 3b ce c1 23 3c 85 04 12 bd
       -0.021091023 0.0027895311 0.009994937 -0.03564884
0002a0 f6 a5 56 bb 6b 94 c8 bc 81 2c 69 bc 6b 07 8b bb
       -0.003275273 -0.024484834 -0.014231802 -0.0042428277
0002b0 f9 24 3a bd e2 40 8f bb 3d 22 2d bd 3c 3d 7c 3c
       -0.045445416 -0.0043717483 -0.04226898 0.015395459
0002c0 ae c0 10 bc 98 31 14 bd 18 63 77 3c 8c 9d ff bb
       -0.008835001 -0.03618011 0.015099309 -0.0078007635
0002d0 23 fe 90 bc 00 45 4f ba d6 2a d3 bc 66 e5 11 bd
       -0.017699307 -0.0007906705 -0.025777262 -0.035619162
0002e0 4c 91 61 3c d8 58 e3 bc 1d b1 99 bc ba 72 bd 3c
       0.013767552 -0.027752325 -0.018761212 0.023125995
0002f0 0e c8 0f bd 24 fc 0a bd 79 6c 0d 3d bf 60 98 bc
       -0.035102896 -0.033931866 0.034527276 -0.01860082
000300 40 cf 76 ba d8 fd a0 bb 21 b3 c9 bc 50 cb 86 3b
       -0.0009415038 -0.004913073 -0.024621548 0.004113592
000310 16 7f c9 bc ac 3a cd 3c 6a 56 97 bc 54 4d 6d 3c
       -0.024596732 0.025052391 -0.018473823 0.0144837685
000320 b3 66 7c 3c 13 2a 47 bd d9 70 17 bd d0 36 68 3c
       0.015405345 -0.04862411 -0.036972854 0.014173225
000330 ff 77 14 bd da ca b9 bc ed ca 11 bd c9 e5 2e bb
       -0.03624725 -0.022679735 -0.035593916 -0.0026687256
000340 33 e2 7c bc 95 dd 66 bc 62 dd ed bc 40 20 e2 bc
       -0.0154347895 -0.014090915 -0.029036228 -0.027603269
000350 0d e1 1e bd f8 0a 30 3c b0 b1 a0 3b 2f ca c3 3b
       -0.038788844 0.010744803 0.0049039945 0.00597503
000360 bd 37 9a bb b6 c7 cb bb dc 1b 04 bb 79 78 b0 bc
       -0.0047063516 -0.0062188758 -0.0020158207 -0.02154182
000370 2f e4 23 bd 10 ee 45 b9 e5 47 0d bd 3f 2e 16 bc
       -0.040012535 -0.00018876069 -0.034492392 -0.009166299
000380 0f 3d 46 bd 1b 15 25 3c dc bd 3c bd 75 1b 1a bd
       -0.048398074 0.010075833 -0.0460795 -0.03762384
000390 f5 a6 8f 3c 0b a6 10 bd 21 c3 c0 bc 96 53 93 3b
       0.017535666 -0.0353146 -0.023530545 0.004496048
0003a0 a6 ed 2e 3c 50 10 a3 3b e0 33 7d 3c 45 88 c4 3a
       0.010676777 0.00497631 0.0154542625 0.0014994225
0003b0 12 4b 50 3c 2c fd 54 bc ee 28 15 bd a6 18 e0 3c
       0.012713211 -0.012999814 -0.036415987 0.027355503
0003c0 cc 2d 8c 3a 3a 1c 18 bc 52 04 ff 3c fc 92 c0 3c
       0.0010694801 -0.0092840735 0.03112999 0.023507588
0003d0 f0 f6 77 3b 2c b4 18 bd fe 1e 43 3c 13 dc 0c bd
       0.0037836395 -0.0372812 0.011909245 -0.034389567
0003e0 c4 9c a8 3c 8f 54 48 3c e7 00 14 bd 25 0f 1d bb
       0.020582564 0.012227192 -0.036133673 -0.0023965326
0003f0 26 ba 20 bb f9 86 1a bd 0a 33 45 3c 8b e8 be bc
       -0.0024525016 -0.037726376 0.012036094 -0.023304245

bias f4 [120]
000000 ce bb 8c bc e2 e0 b6 3c 30 60 5a bc 99 35 ea 3b
       -0.017179396 0.02232403 -0.013328597 0.0071475026
000010 25 9d 14 bd 62 2c c5 bc a2 b3 4a bd a5 db ae bc
       -0.036282677 -0.024069015 -0.049487717 -0.021344969
000020 2e 94 b7 bc 96 08 33 3d f3 92 14 3d 19 ed b2 3d
       -0.022409525 0.04370936 0.036272954 0.08736629
000030 0a 4d 80 3d 3c 60 5d 3d 2e e1 1e bd 09 3e 01 bd
       0.06264694 0.054046854 -0.038788967 -0.031553302
000040 e7 6f 2f 3c 73 f5 ad 3c 91 31 20 ba b5 f5 65 bc
       0.010707832 0.021235203 -0.00061109016 -0.014035632
000050 12 92 68 3b 0d 31 2f bc 19 1d 33 bd 45 8f d6 bc
       0.0035487455 -0.010692847 -0.04372892 -0.026191363
000060 ea 8f d8 bb 3e f3 fc 3c 79 01 4a bb 9f 78 9e 3c
       -0.006608953 0.030877706 -0.0030823632 0.019344626
000070 7e 1b 5d 3c d7 a2 e7 3d c6 8a 6f bc ab f2 51 bb
       0.013495324 0.11310356 -0.0146204885 -0.003203551
000080 5d 46 2b 3d e3 c5 c2 bc 66 dc 00 bc 03 0f 37 bd
       0.04181515 -0.023776 -0.007865047 -0.04469205
000090 d2 db ed 3a bf 4f 4c bc 15 98 e6 bc f9 66 b3 bc
       0.0018147177 -0.012470185 -0.02814869 -0.021899687
0000a0 36 6b 59 bb 6d 15 68 bc 3e fc 0a 3c ea f3 f0 bd
       -0.0033175475 -0.014165265 0.008482991 -0.11765273
0000b0 01 d5 a3 bd 6a c4 1c bd d5 a3 1d bd 2a 93 1f bd
       -0.07999612 -0.038273253 -0.03848632 -0.038958706
0000c0 2a eb 62 bc 91 92 c1 bb eb 6b db 3b 88 e1 3a bc
       -0.013850013 -0.0059073647 0.0066962144 -0.01140631
0000d0 d5 0f f5 3b b4 54 81 bc 3d 18 80 3c 9c f4 21 3c
       0.007478694 -0.01578746 0.015636558 0.00988498
0000e0 68 5d fe 3b 05 30 4a bd b5 35 94 3d 24 5e 36 ba
       0.0077625997 -0.0493622 0.07236806 -0.0006956777
0000f0 b6 33 54 bc 7a 02 ab b8 5b 23 26 bc f2 87 7f bd
       -0.012951782 -8.154377e-05 -0.010140265 -0.062385507
000100 6f 01 ed 3d 61 50 f3 bb ef 42 e4 3b 17 48 f3 bc
       0.11572539 -0.0074253534 0.006965987 -0.029697461
000110 08 dd ac 3d 24 b6 51 bd 4d ef c3 3b 35 40 0b 3d
       0.08440596 -0.051199093 0.0059794546 0.03399678
000120 44 f2 37 bd b7 10 05 3c c2 05 eb b9 b9 6a ba bd
       -0.044908777 0.008121661 -0.00044826983 -0.09102387
000130 b0 2a 80 bc 38 9e 2c 3a b0 b1 b9 3a 00 f8 4e 3d
       -0.015645355 0.0006584856 0.0014167335 0.05052948
000140 c0 42 0e 3e 84 8b d5 3a 90 4c 31 3b ca bb fa 3d
       0.1389265 0.0016292189 0.0027053691 0.12242849
000150 3a a6 47 bc 07 18 76 bd bb 4a 1f bd 23 12 b1 bb
       -0.012185628 -0.060081508 -0.038889628 -0.0054037734
000160 74 f2 04 3e 34 bd a2 bc ee 98 f7 3b 15 3e e4 3d
       0.12983114 -0.01986561 0.0075560724 0.11144654
000170 80 f5 a7 3b fa d1 85 bd 41 aa de 3b e2 12 40 3d
       0.0051257014 -0.065341905 0.006795198 0.046893008
000180 94 f5 b8 bc 83 7c 78 bb 55 5f 7b bb 41 11 bd 3d
       -0.022578038 -0.0037916012 -0.0038356383 0.092318065
000190 7d 43 9d 3c 99 c4 13 3d 51 df f0 bc 1f 75 c3 ba
       0.01919722 0.036076162 -0.02940336 -0.0014912224
0001a0 04 5c 66 3b c3 37 3f 3d b0 64 14 3d 45 05 8c bb
       0.003515006 0.046684038 0.036228836 -0.004273089
0001b0 36 9f 13 bd 3f ff d3 bc 09 45 21 3e 49 4f d1 3c
       -0.036040507 -0.025878547 0.15748991 0.025550501
0001c0 cf 59 94 3b 25 59 21 bd 85 1c 8e 3c 18 29 3e bc
       0.0045273076 -0.039391655 0.017347584 -0.011606477
0001d0 cb ff c7 3c 96 7d 24 bc ec 39 17 3d 5a 80 c0 bc
       0.024413964 -0.010039708 0.036920473 -0.023498703

weight f4 [84, 120]
000000 04 4c 4a 3d 68 3b 86 bd 63 56 ab bd ec 4c 02 bd
       0.0493889 -0.065542996 -0.08366086 -0.03181164
000010 50 53 6d 3d 60 24 0f 3d 52 90 d2 bd ce 45 b1 3d
       0.05794078 0.0349468 -0.10281433 0.08655892
000020 80 9b 85 ba 2c 82 bb bc 90 16 27 bc 68 99 ed bc
       -0.0010193437 -0.02288922 -0.01019825 -0.029003814
000030 88 0f 18 3d 46 23 90 3d 5e 06 10 bd d4 0e 92 3c
       0.037124187 0.07037978 -0.035162322 0.017829336
000040 2c 77 ab 3d c1 7d 60 bd 76 ba 93 3d 0e ae 01 3d
       0.083723396 -0.05480743 0.07213299 0.031660132
000050 b4 a2 62 3d e8 97 c1 bd f0 3e 57 bc 20 1f b8 3c
       0.055330947 -0.09452802 -0.013137564 0.022475779
000060 b0 f6 d7 bc b2 3c f1 bc f4 55 ef bc 99 43 86 bd
       -0.026362747 -0.029447887 -0.02921579 -0.06555862
000070 01 18 0a bc 9a a5 80 3d fb 72 c7 3b e0 64 2d bd
       -0.008428575 0.06281586 0.006086705 -0.04233253
000080 24 57 0c bd 7c d3 7d 3d 53 4d d5 bd cc 66 20 3d
       -0.03426279 0.061969265 -0.10415139 0.039160535
000090 3c e2 b3 bd 9a ff 92 3d a0 33 5b 3c ec 10 8f bd
       -0.08783385 0.071776584 0.013379008 -0.069856495
0000a0 ac 78 b5 3d 68 a3 35 3d 40 10 89 3d ec 5e 97 bd
       0.08860907 0.04434529 0.066925526 -0.07391152
0000b0 96 8b 9e bd c8 e1 b1 3d 90 18 8a 3d 70 29 fa bb
       -0.07741468 0.086856425 0.06742966 -0.0076343343
0000c0 a8 2d a0 3d 44 b5 e0 3c 50 12 44 bc a5 3c 64 bd
       0.07821208 0.027430184 -0.011967257 -0.055721898
0000d0 99 ca b0 bd d0 2d 76 bc d6 ae a5 3d 2c cc a6 bd
       -0.086323924 -0.015025571 0.08089988 -0.081444114
0000e0 e8 0b 0f bc 28 dd cc 3c 8c c0 aa 3c fa 77 1f bd
       -0.008730866 0.0250078 0.020843767 -0.038932778
0000f0 bf a5 ad bc fe dc 6e 3d 88 19 50 3d 86 ab 8d 3c
       -0.021197198 0.058316223 0.0508056 0.017293703
000100 9f ad b3 bc b1 52 0f bd 39 46 37 bd cc f2 41 bc
       -0.021933375 -0.03499097 -0.044744704 -0.011837672
000110 2a 2f 88 3d ba 49 d9 bd a0 a7 34 3b dc 60 d4 bc
       0.06649621 -0.10609765 0.0027565733 -0.025925092
000120 c0 df e7 3c 23 36 2a bd 00 69 58 ba c3 68 99 bd
       0.028304935 -0.041555535 -0.00082553923 -0.07490685
000130 c5 e0 61 bd d0 93 1c 3d 18 a8 23 3d 40 99 89 bd
       -0.055145998 0.038226902 0.03995523 -0.06718683
000140 a3 4b 58 bd de f7 a1 bd f0 9c 58 3c 28 e3 91 3d
       -0.052806508 -0.07908605 0.013221011 0.07123405
000150 3e a4 07 3d e4 5c 47 3d 96 1a 86 3d 9c 5b 08 3d
       0.033115618 0.04867257 0.065480396 0.03329049
000160 d0 78 24 3c 70 36 14 bc 0b 87 a4 bd cd c8 cd bd
       0.01003857 -0.009046182 -0.0803357 -0.10048065
000170 e0 5e 91 3d 7d e3 a1 bc 38 a2 b7 3d 20 45 b1 3c
       0.07098174 -0.019761795 0.08966488 0.021639407
000180 18 2c 3d 3d 73 33 1a 3d 18 1a 06 bc 49 d6 ac 3c
       0.04618463 0.037646722 -0.008184932 0.021098273
000190 7c d9 9a bd bc 05 7d 3a 70 8c a8 3d 20 22 13 3b
       -0.07561013 0.00096520386 0.08229911 0.002245076
0001a0 74 c0 83 bc f9 a5 74 bd a0 40 86 3d a0 3e 90 bb
       -0.01608298 -0.059728596 0.06555295 -0.0044019967
0001b0 60 61 f3 bb 40 83 60 3d d5 a6 cc bd d3 cb 07 bd
       -0.0074273795 0.05481267 -0.09992758 -0.033153366
0001c0 5c 9f 02 3d d4 f9 a8 3d 00 db c0 39 39 37 40 bd
       0.03189026 0.08250776 0.00036784261 -0.046927664
0001d0 60 bf 50 3d 14 0d 82 3d e4 80 c8 bd 01 d6 74 bd
       0.05096376 0.06350151 -0.09790209 -0.059774403
0001e0 a0 66 87 bd da 04 ff bc 81 24 be 3d c7 d1 d5 bd
       -0.06611371 -0.031130243 0.09284306 -0.104404025
0001f0 05 c7 08 3d cc 02 48 3d 12 7c 87 3d fa 2c 7b 3d
       0.033392925 0.048830792 0.066154614 0.06132219
000200 67 c7 c0 3c 23 c4 a7 bd d2 af 78 bc f1 04 d7 3d
       0.023532582 -0.08191707 -0.015178638 0.104989894
000210 df de 07 3c dd 72 04 3e e7 a5 d6 3b 18 7a 97 bd
       0.008292883 0.12934442 0.006550539 -0.073963344
000220 89 b7 ab 3c 3b 5f 62 bd b0 13 7d 3c e5 b4 aa 3d
       0.02096154 -0.0552666 0.015446588 0.08335284
000230 91 b4 38 bc 76 f8 7a bd e6 df 09 bd 4e 7d 22 3c
       -0.011273519 -0.061272107 -0.03366079 0.00991757
000240 97 d0 bb 3d 67 66 84 3d ea 65 57 3d 49 48 eb 3c
       0.09170645 0.06464844 0.052587427 0.028720992
000250 91 e4 1b be 87 58 7e 3d 90 bb 53 3c ac 3f e8 3d
       -0.1522391 0.062096145 0.012923136 0.113402694
000260 ed 3d a9 3d 2c 6d ca bc 9e dc b6 bd 9a 96 16 3c
       0.082637645 -0.02471026 -0.08928798 0.00919118
000270 5d a6 80 3c 1b 96 b4 bd c7 0c 15 3e 03 bf 07 3e
       0.015704328 -0.08817693 0.14555655 0.13256459
000280 f9 5c d4 3a 17 97 80 3d 73 4f 80 3c b4 50 ac 3d
       0.0016202024 0.06278818 0.015662884 0.084138304
000290 56 a3 94 bd e0 9f ff 3c 20 07 87 bd 1a b5 b3 ba
       -0.07257716 0.031204164 -0.06593156 -0.0013710589
0002a0 f9 15 4c 3d 24 6d 8c 3d 44 93 8a 3d 26 d1 ca bb
       0.049825642 0.068567544 0.0676637 -0.006189483
0002b0 08 53 96 bd 87 79 6f bd b1 75 f2 3c 99 52 6f bc
       -0.07340056 -0.058465507 0.029597135 -0.014607095
0002c0 3d e4 42 3d 51 a5 6c bc c0 ae f1 3d 56 2f 88 bd
       0.047580946 -0.014443711 0.11800909 -0.066496536
0002d0 2d c0 09 be 3a 60 99 3d ff f2 33 bd 6a 86 3c bd
       -0.13452215 0.07489057 -0.04393291 -0.046026625
0002e0 de 6d d2 3c 4e a7 88 3d 1d 3f d4 bc c4 65 10 3d
       0.025687154 0.06672536 -0.025909001 0.0352533
0002f0 09 d6 91 bd e7 6b a3 bb 88 ba 15 bc 24 c0 5e bd
       -0.07120902 -0.004987228 -0.009138711 -0.05438246
000300 88 f7 62 bb 50 3c 7e bc 03 b0 32 3d 40 e6 6a 3d
       -0.0034632403 -0.015517309 0.04362489 0.05734849
000310 43 28 ab 3c 70 f8 1f bd 50 a0 b0 3d f2 10 7e bd
       0.020893222 -0.039055288 0.08624327 -0.06202788
000320 6b b5 ba bd 13 2c 16 bd 24 ca 55 bd 03 10 f0 3c
       -0.09116634 -0.036663126 -0.05219473 0.02930451
000330 24 1f 07 3d 1a 1c e9 3d aa 31 ad bd 40 dc 97 bd
       0.032988682 0.11382313 -0.08456738 -0.07415056
000340 c6 56 9f 3d 48 51 6f 3d a2 dd 64 3d aa c0 cd bc
       0.077802226 0.058427125 0.055875428 -0.025116283
000350 fe 82 ae 3d 62 c8 a9 3c 3c 07 e8 3b 98 cc 9c bd
       0.085210785 0.020725433 0.0070809405 -0.07656211
000360 f2 32 b0 3d 9b b6 fe 3d fd a2 55 bd f7 6a 11 bd
       0.08603467 0.12437173 -0.05215739 -0.0355024
000370 05 6b c2 3d 91 7b d0 bd d4 b1 4c 3d 27 a4 93 3d
       0.094930686 -0.101798184 0.049974278 0.07209044
000380 fb 96 9d 3b 9d f6 35 bc a4 2c 87 bc d3 c9 b3 bd
       0.004809258 -0.0111061605 -0.016500778 -0.08778729
000390 dd eb 8c bc 3e 28 aa bd 9b 2d 9f bd 63 8d 81 3d
       -0.017202312 -0.08308457 -0.077723704 0.063257955
0003a0 67 12 9a bd 5e 18 47 3b c2 51 e0 bb 01 88 97 bc
       -0.07523041 0.0030379514 -0.006845684 -0.018497469
0003b0 2d ac 35 bd f0 18 85 3d c3 0a 9b 3d ba 52 51 3c
       -0.044353653 0.06498897 0.07570412 0.012776071
0003c0 0c 15 5b 3d 54 98 b1 3d 15 0c 81 3d c5 26 5b 3d
       0.05348687 0.086716324 0.063011326 0.05350377
0003d0 60 2c f7 3c fc da 55 bd 55 2b 8a 3d 9a 8b 95 3d
       0.030172527 -0.052210793 0.06746546 0.073020175
0003e0 f1 d8 1e bd 4d 43 21 3d 11 08 ab bd 55 e4 03 3e
       -0.03878111 0.039370824 -0.08351148 0.1288007
0003f0 5e 62 1c 3e d1 63 07 3e 7c 0e f7 3c 3f 04 ad bd
       0.15271899 0.1322167 0.030158274 -0.084480755

bias f4 [84]
000000 9a 0b e0 bd 91 ba 28 3d 4f 1b 57 3e b7 36 92 bd
       -0.10939713 0.04119355 0.21006511 -0.07139342
000010 f8 84 78 3c 51 0b 1a 3e ed b9 ba bd ab a9 a9 bd
       0.015168421 0.1504338 -0.09117494 -0.08284315
000020 93 e4 cc bd 74 0d a3 bd 2f 6a 67 3e cd 77 40 3e
       -0.100045346 -0.0796155 0.225991 0.187957
000030 26 1a a1 3d 2e a6 05 bd 55 34 1e bc 22 6c 7a 3d
       0.078663155 -0.032629184 -0.009656032 0.06113828
000040 bd 29 64 bd 0c 2d 97 bc 28 a2 38 3e 64 ca b6 bd
       -0.055703867 -0.018454097 0.18030608 -0.08925322
000050 41 8f a8 bc d8 67 1c bd cd a1 f8 3d 29 6b e4 3d
       -0.020576121 -0.03818497 0.12140236 0.11153252
000060 32 32 24 3d 30 23 7b 3d de e1 b3 bd 29 cd 0d 3e
       0.040086932 0.061312854 -0.08783315 0.13847794
000070 15 6c 21 3e 46 87 56 3d 3a 59 9d 3d bb 06 e4 bd
       0.15763886 0.0523751 0.07683034 -0.11134096
000080 88 21 45 bd 06 2d 16 3e de aa 8e bc 60 0c 9e 3c
       -0.04812768 0.14665613 -0.01741546 0.01929301
000090 01 0b 26 be 67 ff 01 3e 78 8c ae bc cf a2 99 3d
       -0.16215135 0.12695085 -0.021307215 0.075017564
0000a0 05 75 4d bd 68 7b cf bd b5 8c 29 3d 21 54 6c 3c
       -0.050160427 -0.1013096 0.041393954 0.014424355
0000b0 cf 59 6d 3d 7f 6f 84 3d b6 27 5f 3d a7 dc 9b 3d
       0.057946976 0.06466579 0.05448123 0.076104455
0000c0 ed 68 1c 3d 8d 2d a1 bd 7f 96 d5 bc 70 c4 cc bd
       0.038186003 -0.07870016 -0.026072739 -0.09998405
0000d0 80 52 10 be c9 c5 f8 bd 52 de a5 bb 52 2f b5 3c
       -0.14093971 -0.121470995 -0.005061903 0.02211729
0000e0 76 a7 c5 bd 8a 79 21 bc 78 e0 79 3d 3a 6d ca bd
       -0.09651081 -0.009855637 0.061005086 -0.098841146
0000f0 e6 3e 8c 3d a8 3c 0c bb 63 d9 21 3e 0f 2f 58 3d
       0.068479344 -0.0021398459 0.15805583 0.052779254
000100 c7 c0 af bd 0c 73 5c bd 9e 44 94 bd 4e f0 ef 3d
       -0.08581691 -0.053820655 -0.0723965 0.11715756
000110 7c f4 c0 bd 26 85 cc bd f7 c7 bf 3c 96 2f 84 bd
       -0.09421632 -0.099863335 0.02341078 -0.06454389
000120 d1 28 9c bc 94 88 8a bd 8a c0 08 3d a7 9b 6a bd
       -0.019062432 -0.067643315 0.033386745 -0.057277348
000130 d2 e6 5e 3c 68 f3 05 3e 48 83 9d 3d e1 15 2f 3d
       0.013604837 0.13081133 0.076910555 0.042745475
000140 fa d0 a9 bd 77 67 b4 bd 0d 28 8f bc b2 0c 74 bd
       -0.08291812 -0.08808797 -0.017475152 -0.05958242

weight f4 [10, 84]
000000 58 f6 4a bd b9 3f c7 3c fc 5d 48 3e a3 57 69 bd
       -0.049551338 0.024322378 0.19567102 -0.056968343
000010 d9 22 90 be 64 2e 8e bb 8c 42 a3 bd 66 69 87 bd
       -0.28151587 -0.0043390263 -0.07971677 -0.066119
000020 cf ff 52 bc 34 b3 8e bb 2a 13 04 3e 8f ab 8b 3d
       -0.012878372 -0.004354859 0.12897936 0.068198316
000030 1a 75 a6 3d b2 b7 ed bd aa a2 72 3d 98 3a 9b bd
       0.08127804 -0.11607303 0.05923716 -0.07579535
000040 f8 81 bf bd 84 e2 82 bd d7 ab d0 3d 33 5f d7 3c
       -0.093509614 -0.06390861 0.10189026 0.026290512
000050 52 a6 81 3d 58 f4 14 bb ea fe 07 3d ce 64 14 3d
       0.06330551 -0.0022728648 0.03320209 0.036228947
000060 62 84 16 3d a6 5c ab bd 5d 5e 49 bd c5 53 b9 3d
       0.036747344 -0.08367281 -0.049162257 0.09049181
000070 b3 5d c2 3d bf db 02 bc 3d c4 8a 3d 6a c7 c6 bc
       0.09490528 -0.007986962 0.06775711 -0.02426501
000080 63 b3 5e bc b0 00 d7 3d 96 d5 28 be 3b ba 50 be
       -0.013592574 0.10498178 -0.16487727 -0.20383541
000090 65 fc 08 be 34 3f 6a 3d b0 12 13 3d 00 24 e1 bd
       -0.13377531 0.05718918 0.035906494 -0.109931946
0000a0 74 1b d6 bd df 9f 3d 3d fc 03 8f bd 10 24 67 3d
       -0.10454455 0.046295043 -0.06983182 0.056430876
0000b0 0d df 39 3c 29 5d f8 bd 7e 17 8f 3d 05 07 88 3d
       0.011344683 -0.12127144 0.06986903 0.06641964
0000c0 28 2a 71 3c bc a3 41 be 69 aa 1c bd 7b d7 86 bd
       0.0147195235 -0.18910116 -0.038248453 -0.065840684
0000d0 e6 b5 0f bd fb 43 7e 3d 54 e2 5c bd 11 a2 a7 3d
       -0.03508558 0.06207655 -0.05392678 0.081852086
0000e0 b4 bd 44 bd a5 c2 fb bc 51 46 15 39 01 c4 b2 bd
       -0.048032477 -0.030732462 0.00014235942 -0.08728791
0000f0 68 47 a8 3d c4 40 35 3c cd 1c b9 3d a2 ed 0c be
       0.08216745 0.011062805 0.090386964 -0.13762525
000100 a5 6e df bb f2 52 01 bc 40 4b 06 bd 7d 82 cd 3c
       -0.00681861 -0.007893311 -0.032786608 0.025086636
000110 ac f2 d3 bd 13 8a 34 bc 8a b4 46 3c fc fb 9a bd
       -0.1034902 -0.011019248 0.012128005 -0.075675935
000120 01 61 9f bd c0 c9 98 3d 81 12 e2 bc e7 cd 21 3d
       -0.07782174 0.07460356 -0.027596714 0.039503004
000130 86 fe 44 3d 70 63 64 3d 08 43 8c 3d 39 9f 7a be
       0.048094295 0.055758893 0.06848723 -0.24474801
000140 5b ca 51 3d ee 30 8b 3d 30 10 80 ba 4b b5 b2 bd
       0.05121837 0.06796442 -0.0009770449 -0.08725985
000150 bf a6 50 3d 6c c5 50 3d 60 47 3d be 89 fe ab bd
       0.05094027 0.050969526 -0.18484259 -0.08398158
000160 42 a6 ad be 6e 97 9a bc 00 0b 64 3d 5f da c3 bd
       -0.33915907 -0.018871035 0.055674553 -0.09563135
000170 e1 50 0c 3e 3e a4 ed bc 2f 85 8b bd a0 85 c6 b9
       0.13702728 -0.02900898 -0.06812512 -0.0003786506
000180 5e aa 22 bd f0 10 46 3d d3 37 61 bd c3 ad 4b bd
       -0.039713256 0.048355997 -0.05498488 -0.04972626
000190 4d 32 83 bd 33 98 1a bc a0 09 98 bd 95 51 82 bd
       -0.064060785 -0.009435701 -0.07423711 -0.06363217
0001a0 fe 7e d8 3d 75 40 9f bd 1a d8 81 3c 8b 25 26 be
       0.10571097 -0.07775966 0.015850116 -0.16225259
0001b0 98 70 01 be 03 ae 4e be fd c4 65 bd 7f 63 f1 3d
       -0.12640607 -0.20183568 -0.056096066 0.117865555
0001c0 82 8c 3e bc 77 10 01 be f4 7b 19 3d b1 ba ae bd
       -0.011630179 -0.12603937 0.037471727 -0.08531702
0001d0 7a ea bf 3d fc 89 46 bc 9a eb 0a be 71 9e 2e be
       0.09370895 -0.012117859 -0.13566437 -0.17052628
0001e0 f2 44 3f 3d ee 16 bd 3d 59 77 0c 3c 00 b7 9d 3d
       0.04669661 0.09232889 0.008573377 0.0770092
0001f0 c5 e8 b8 bd b7 e9 90 bd a0 a3 44 be 31 47 9e bd
       -0.09028772 -0.070758276 -0.19203043 -0.077284224
000200 23 74 4d bd 22 a4 08 be c3 80 37 bd 2e 2f 5e bd
       -0.050159585 -0.13343862 -0.04480053 -0.054244213
000210 01 a8 c3 3d 08 7f 13 be 5a 0b 6f bd 61 e0 57 3d
       0.095535286 -0.14403927 -0.058360435 0.05270422
000220 2a 0d be 3c dd 3e b8 3b 28 fa 0a 3e 78 39 88 bd
       0.023199636 0.0056227283 0.1357199 -0.06651586
000230 f2 f7 92 bd 1c 46 4a 3d 6f 10 8c 3d c5 a1 ae 3d
       -0.07176198 0.049383268 0.06839072 0.08526949
000240 a4 d1 2c bd cd 91 a4 3d 99 2d 90 bb b5 23 07 bd
       -0.042192116 0.08035622 -0.004399967 -0.032993037
000250 b9 e8 00 be 57 9b 8d bc 3e 57 e5 3d 2d de c2 bc
       -0.12588777 -0.017285986 0.11198281 -0.023787582
000260 87 c8 90 3c 6f 3c 7a bd fa f0 1f 3c c2 db 14 be
       0.017673744 -0.06109279 0.009762043 -0.14536956
000270 bf dc f4 bc 74 d4 34 bc 61 af d3 ba 94 09 28 3c
       -0.029890416 -0.011036981 -0.001615029 0.01025619
000280 7e b2 bb 3d 04 f1 35 3d 15 ed a6 3d 51 3a 9c be
       0.09164904 0.044419304 0.081506886 -0.30513242
000290 cf 95 91 3c 6f 0b bc bd c3 b9 0c be d4 07 9f 3d
       0.01777163 -0.09181868 -0.13742737 0.07765165
0002a0 7b be ac bd 93 d5 c5 bd 57 4d d4 bd 70 c2 1f 3d
       -0.08434769 -0.09659877 -0.10366314 0.03900379
0002b0 91 d0 5a 3c db fe a6 3a a5 3b c9 3c 83 1c b1 3d
       0.01335539 0.0012740748 0.024564574 0.08648016
0002c0 70 ce ad bd 7d b6 2d 3d 23 9b 1c be 5a 30 3b 3b
       -0.084866405 0.042410363 -0.15293555 0.0028562755
0002d0 e7 ff b0 bd b7 1e ce bd d8 cb ae 3c 7e 87 01 bc
       -0.086425595 -0.10064452 0.021337435 -0.007905839
0002e0 5c 06 a7 bd d1 09 bd 3d 30 75 69 3b f8 ae c8 bd
       -0.0815551 0.09230388 0.0035622828 -0.09798998
0002f0 ea 3f 65 3d a5 62 0a 3d ec 34 43 be 52 bf 21 bd
       0.055969156 0.03378548 -0.19063157 -0.039489098
000300 b2 ac 1e be 8c 42 a3 3d 19 71 a8 bd 08 58 8d 3b
       -0.15495566 0.07971677 -0.08224697 0.0043134727
000310 4d 76 ee bd 2e db 8d 3d a9 33 73 bd cf 58 16 bd
       -0.11643658 0.06926571 -0.05937544 -0.03670579
000320 c8 73 ca 3d 8a 34 b6 bd 80 91 a1 3d 1a d6 2a be
       0.09885365 -0.0889674 0.0788908 -0.16683236
000330 cb a9 3e be 08 e5 bd 3d 2a 44 87 bd 9a 1f 64 bd
       -0.18619458 0.092722 -0.06604798 -0.0556942
000340 53 e1 9b 3d 55 12 10 bd f3 6a ba 3c d6 f8 cc bc
       0.076113366 -0.035173733 0.022756075 -0.025020998
000350 f4 62 9e 3d 81 ae ae bd 31 28 8c bd 1d 40 55 bd
       0.077337176 -0.08529378 -0.068436034 -0.052063096
000360 fb af b9 bc ce 1b 88 3d 16 19 71 bd e7 fa aa 3d
       -0.022666922 0.06645928 -0.058861814 0.08348637
000370 dd b9 58 bd ae 7a 4d bd 67 07 82 3d 29 6d ad bd
       -0.052911628 -0.050165825 0.06349068 -0.08468086
000380 4c 4e c0 b9 ef 82 63 bd e6 a3 5f 3d 26 61 87 3d
       -0.0003667943 -0.05554479 0.054599665 0.066103265
000390 dd e8 aa 3c 67 f6 8a bd 9a c7 05 bd 05 01 c9 3d
       0.020862991 -0.06785279 -0.032661058 0.098146476
0003a0 01 c6 81 3d d0 87 00 bd 22 a4 8c 3d 3a 46 a7 bd
       0.063365944 -0.03137952 0.06867243 -0.081676915
0003b0 40 80 27 3d eb da 72 bd 8a ae f6 3c 96 0c c3 3d
       0.040893793 -0.059290808 0.030112524 0.09523885
0003c0 4a b7 80 bd e0 09 e4 bd 1c 5a 71 bd 40 5f 0e 3e
       -0.062849596 -0.11134696 -0.058923826 0.13903522
0003d0 98 c0 e6 3c 06 d2 96 bd 89 20 0e be 63 41 9d bd
       0.028168008 -0.073642775 -0.13879599 -0.07678487
0003e0 54 1b df ba b2 a3 04 3b a6 3b 07 be 1e dd b4 3d
       -0.0017021694 0.0020239172 -0.13206348 0.08831237
0003f0 69 1e 45 bd 5d e1 fd bd cf 77 3f be 90 fc e0 bd
       -0.048124705 -0.123965 -0.18698047 -0.109856725

bias f4 [10]
000000 2a c3 b7 3d b7 0b 2e be 89 a7 0e bd 2d 4f 81 bd
       0.089727715 -0.16996656 -0.034827743 -0.0631393
000010 30 0c 90 bd a4 35 32 be 42 df c2 bd 00 73 63 bd
       -0.070335746 -0.17403275 -0.09515239 -0.055529594
000020 c5 2b 23 be 10 67 d3 bd
       -0.15934666 -0.10322392
